last_brain.pth (torch, 8674 bytes, 16 tensors)

fc1.weight f4 [30, 5]
-0.03732529 -0.30871302 -0.05749349 -0.030038329 0.05804148 -0.042188942 -0.35452405 -0.38079706
-0.3546454 -0.19976422 -0.6808731 -0.39042038 -1.1880876 -0.2819513 -0.0018194563 0.100637786
0.1943063 -0.35729766 0.26336843 0.3303136 -0.3387993 -0.17489998 -0.4330454 -0.21068418
0.026026862 -0.57251096 -0.29297984 -0.5488593 -0.11657901 0.063536175 0.026932664 0.20801547
0.15552525 -0.06435069 -0.03345698 -0.1392416 0.25374174 -0.44110292 0.25365704 0.36336675
-1.063327 -0.4287435 -0.5429871 -0.73996395 0.36701265 -0.08957202 -0.007348848 -0.032429006
-0.18483147 -0.06523578 0.816222 0.6659414 0.94793934 -0.6116213 -0.054608792 0.44627157
-0.43162367 -0.12747627 0.16269165 0.41236144 -0.3689854 -0.36382076 -0.31404337 0.049118362
0.31011954 -0.58825445 -0.15936106 -0.3408018 -1.6331363 0.19482844 -0.4641448 0.102526225
-0.8292762 0.15298223 -0.0021843326 -0.35473344 -0.30247062 -0.12399204 0.20164381 0.21478982
0.9289487 0.43462235 0.49170396 0.15642698 0.40736255 -0.9767477 -0.48585814 -0.8104773
-1.1353458 0.102416575 -1.1266146 -0.78932875 -1.0840765 -1.5697436 -0.0044472814 -0.6620538
-0.7848075 -0.66833776 -1.0134135 0.0725018 -0.1738331 -0.0274414 -0.35306576 -0.093360215
-0.19913797 -0.77424353 -1.0596533 -1.3094938 -1.4434104 0.015054161 -0.33281747 -0.12577151
-0.7797714 -0.3977703 -0.06619695 -1.089585 -1.0312914 -0.834176 -1.3417902 0.26691186
-0.0316724 -0.11165839 0.32140386 0.22430705 0.18121079 -1.0393742 -0.5747723 -1.2171025
0.14535755 -0.02485982 -0.3200907 -0.35197788 0.65246004 0.24287948 -0.2180601 -0.53973424
-0.43382838 -0.568653 -0.7574502 0.13126625 -0.42146525 -0.972101 -1.0817777 -1.0946423
0.21194221 0.96088743 0.2884901 1.0668501 -0.43183407 0.056443032
00000000: 67e2 18bd a20f 9ebe 4b7e 6bbd f112 f6bc
00000010: e7bc 6d3d 50ce 2cbd 2d84 b5be d5f7 c2be
00000020: 1594 b5be fe8e 4cbe b34d 2ebf 2ee5 c7be
00000030: 4113 98bf ec5b 90be d37a eeba 2f1b ce3d
00000040: 3bf8 463e b8ef b6be 3ad8 863e dd1e a93e
00000050: 1a77 adbe fb18 33be 20b8 ddbe 98bd 57be
00000060: 4936 d53c 1490 12bf 7401 96be 0b82 0cbf
00000070: fac0 eebd 411f 823d e4a1 dc3c 0202 553e
00000080: 0342 1f3e 4bca 83bd 300a 09bd 5a95 0ebe
00000090: 70ea 813e 3ed8 e1be 56df 813e 350b ba3e
000000a0: 191b 88bf 4584 dbbe 3401 0bbf 476e 3dbf
000000b0: 15e9 bb3e 8971 b7bd 9bce f0bb 47d4 04bd
000000c0: 7644 3dbe 569a 85bd edf3 503f 237b 2a3f
000000d0: 27ac 723f 3793 1cbf 78ad 5fbd b57d e43e
000000e0: c7fd dcbe 2489 02be a498 263e 0a21 d33e
000000f0: a8eb bcbe b746 babe 4bca a0be 5630 493d
00000100: fdc7 9e3e d897 16bf 8c2f 23be 937d aebe
00000110: 9c0a d1bf 1b81 473e 63a4 edbe 45f9 d13d
00000120: 724b 54bf 60a7 1c3e 0527 0fbb 9f9f b5be
00000130: 6edd 9abe 8aef fdbd b77b 4e3e ddf1 5b3e
00000140: 95cf 6d3f d286 de3e 9fc0 fb3e 652e 203e
00000150: d391 d03e 230c 7abf 66c2 f8be 717b 4fbf
00000160: 0353 91bf c8bf d13d e834 90bf 7311 4abf
00000170: 05c3 8abf 5ced c8bf 80ba 91bb 5c7c 29bf
00000180: 25e9 48bf 2f18 2bbf 89b7 81bf d37b 943d
00000190: 4e01 32be c9cc e0bc 09c5 b4be a433 bfbd
000001a0: d3ea 4bbe d334 46bf b8a2 87bf 7e9d a7bf
000001b0: acc1 b8bf baa5 763c 0d67 aabe 3fca 00be
000001c0: 199f 47bf 8ca8 cbbe 4492 87bd 8577 8bbf
000001d0: 5b01 84bf 8f8c 55bf c8bf abbf aca8 883e
000001e0: ebba 01bd 27ad e4bd 0c8f a43e bfb0 653e
000001f0: 528f 393e 370a 85bf 4724 13bf 04ca 9bbf
00000200: 9cd8 143e d2a6 cbbc eee2 a3be 7236 b4be
00000210: 9f07 273f 66b5 783e 264b 5fbe 062c 0abf
00000220: c11e debe 3e93 11bf 42e8 41bf a96a 063e
00000230: 4bca d7be 9cdb 78bf b177 8abf 3d1d 8cbf
00000240: 6107 593e b8fc 753f f9b4 933e 8b8e 883f
00000250: 5b19 ddbe cf30 673d

fc1.bias f4 [30]
-0.06002938 -0.15983768 1.5362377 -0.18628922 -0.41881418 1.1266377 -0.46697146 -0.07438753
1.0187719 -0.2079972 -0.17693546 -0.17416206 -0.17038907 1.8700527 1.5171319 -0.008408503
-0.08175062 1.1433215 1.5715705 1.1284449 -0.34104005 1.8113883 1.667102 1.4840931
-0.39995378 1.6619117 -0.46513706 0.9644461 1.2770482 -0.2531312
00000000: 5ee1 75bd 7dac 23be 70a3 c43f 9ac2 3ebe
00000010: d06e d6be aa35 903f e216 efbe 7d58 98bd
00000020: 1e67 823f 38fd 54be 922e 35be 8a57 32be
00000030: 797a 2ebe e35d ef3f 6131 c23f d1c3 09bc
00000040: de6c a7bd 5c58 923f 3929 c93f e270 903f
00000050: cd9c aebe 92db e73f 9963 d53f c3f6 bd3f
00000060: bec6 ccbe 86b9 d43f 7226 eebe f1e5 763f
00000070: 5176 a33f 6a9a 81be

fc2.weight f4 [3, 30]
-0.110849656 -0.008444818 1.7367849 -0.1262725 -0.009641161 0.23851217 0.047675427 -0.1007012
0.1095259 -0.07782396 -0.26601616 -0.17728326 -0.03134287 0.15705416 1.2299855 -0.080488585
-0.13500534 0.29938594 1.4328555 0.3437244 0.17977229 1.479142 1.2590709 0.21577266
0.0348869 1.3545645 -0.33408955 0.27014756 0.17622972 -0.28605312 -0.124068424 0.02254482
-0.13850679 -0.15905671 0.082971424 0.07400363 0.011121287 0.12803088 0.038173825 0.040309362
0.088065006 0.16855197 0.1443987 -0.017444212 -0.092279926 0.045922894 0.16843261 0.12650314
0.072101675 0.17226462 -0.15590143 0.020602638 -0.08018792 -0.072020926 0.12235913 -0.12434986
-0.047020458 0.1604901 -0.13227372 -0.11996731 0.15725362 0.17717764 -0.0015847196 -0.1780999
-0.03955592 -0.14158486 0.12961625 0.03524704 -0.17819141 0.07039903 -0.0005327959 0.036321554
-0.109554306 0.14785208 -0.09586898 0.1424145 0.13594642 -0.07240035 0.014308617 -0.13251318
-0.13430424 0.06427789 -0.13234966 0.07429386 -0.051872537 0.17126383 -0.12067775 0.10317277
-0.1067553 -0.16351178
00000000: 2505 e3bd 225c 0abc f84e de3f 944d 01be
00000010: f6f5 1dbc 893c 743e 4f47 433d 6e3c cebd
00000020: 1d4f e03d 2b62 9fbd 4533 88be be89 35be
00000030: 6261 00bd ced2 203e 2a70 9d3f 33d7 a4bd
00000040: d73e 0abe 1d49 993e cf67 b73f a5fc af3e
00000050: 3a16 383e 8654 bd3f 3c29 a13f 82f3 5c3e
00000060: 91e5 0e3d 5f62 ad3f c90d abbe c850 8a3e
00000070: 9075 343e 8e75 92be 9617 febd eaaf b83c
00000080: b9d4 0dbe c3df 22be ecec a93d 378f 973d
00000090: 0f36 363c 871a 033e 285c 1c3d 6e1b 253d
000000a0: 6d5b b43d e398 2c3e 41dd 133e 2ae7 8ebc
000000b0: 42fd bcbd a519 3c3d 9979 2c3e 0a8a 013e
000000c0: 0baa 933d 2366 303e a0a4 1fbe ddc6 a83c
000000d0: 9039 a4bd b57f 93bd 6c97 fa3d 24ab febd
000000e0: 8698 40bd 8457 243e c372 07be 6cb1 f5bd
000000f0: 1807 213e 0e6e 353e 5eb6 cfba d25f 36be
00000100: 6305 22bd 9ffb 10be 1fba 043e 335f 103d
00000110: cf77 36be 5e2d 903d 54ab 0bba e9c5 143d
00000120: 025e e0bd 8966 173e f556 c4bd 1bd5 113e
00000130: 8a35 0b3e a246 94bd b16e 6a3c 89b1 07be
00000140: 0d87 09be 20a4 833d ab86 07be 6127 983d
00000150: 4c78 54bd c95f 2f3e e525 f7bd 3f4c d33d
00000160: 86a2 dabd a26f 27be

fc2.bias f4 [3]
0.5281979 -0.10883312 0.101025134
00000000: fa37 073f e6e3 debd 44e6 ce3d

state f4 [30, 5]
-0.03732529 -0.30871302 -0.05749349 -0.030038329 0.05804148 -0.042188942 -0.35452405 -0.38079706
-0.3546454 -0.19976422 -0.6808731 -0.39042038 -1.1880876 -0.2819513 -0.0018194563 0.100637786
0.1943063 -0.35729766 0.26336843 0.3303136 -0.3387993 -0.17489998 -0.4330454 -0.21068418
0.026026862 -0.57251096 -0.29297984 -0.5488593 -0.11657901 0.063536175 0.026932664 0.20801547
0.15552525 -0.06435069 -0.03345698 -0.1392416 0.25374174 -0.44110292 0.25365704 0.36336675
-1.063327 -0.4287435 -0.5429871 -0.73996395 0.36701265 -0.08957202 -0.007348848 -0.032429006
-0.18483147 -0.06523578 0.816222 0.6659414 0.94793934 -0.6116213 -0.054608792 0.44627157
-0.43162367 -0.12747627 0.16269165 0.41236144 -0.3689854 -0.36382076 -0.31404337 0.049118362
0.31011954 -0.58825445 -0.15936106 -0.3408018 -1.6331363 0.19482844 -0.4641448 0.102526225
-0.8292762 0.15298223 -0.0021843326 -0.35473344 -0.30247062 -0.12399204 0.20164381 0.21478982
0.9289487 0.43462235 0.49170396 0.15642698 0.40736255 -0.9767477 -0.48585814 -0.8104773
-1.1353458 0.102416575 -1.1266146 -0.78932875 -1.0840765 -1.5697436 -0.0044472814 -0.6620538
-0.7848075 -0.66833776 -1.0134135 0.0725018 -0.1738331 -0.0274414 -0.35306576 -0.093360215
-0.19913797 -0.77424353 -1.0596533 -1.3094938 -1.4434104 0.015054161 -0.33281747 -0.12577151
-0.7797714 -0.3977703 -0.06619695 -1.089585 -1.0312914 -0.834176 -1.3417902 0.26691186
-0.0316724 -0.11165839 0.32140386 0.22430705 0.18121079 -1.0393742 -0.5747723 -1.2171025
0.14535755 -0.02485982 -0.3200907 -0.35197788 0.65246004 0.24287948 -0.2180601 -0.53973424
-0.43382838 -0.568653 -0.7574502 0.13126625 -0.42146525 -0.972101 -1.0817777 -1.0946423
0.21194221 0.96088743 0.2884901 1.0668501 -0.43183407 0.056443032
00000000: 67e2 18bd a20f 9ebe 4b7e 6bbd f112 f6bc
00000010: e7bc 6d3d 50ce 2cbd 2d84 b5be d5f7 c2be
00000020: 1594 b5be fe8e 4cbe b34d 2ebf 2ee5 c7be
00000030: 4113 98bf ec5b 90be d37a eeba 2f1b ce3d
00000040: 3bf8 463e b8ef b6be 3ad8 863e dd1e a93e
00000050: 1a77 adbe fb18 33be 20b8 ddbe 98bd 57be
00000060: 4936 d53c 1490 12bf 7401 96be 0b82 0cbf
00000070: fac0 eebd 411f 823d e4a1 dc3c 0202 553e
00000080: 0342 1f3e 4bca 83bd 300a 09bd 5a95 0ebe
00000090: 70ea 813e 3ed8 e1be 56df 813e 350b ba3e
000000a0: 191b 88bf 4584 dbbe 3401 0bbf 476e 3dbf
000000b0: 15e9 bb3e 8971 b7bd 9bce f0bb 47d4 04bd
000000c0: 7644 3dbe 569a 85bd edf3 503f 237b 2a3f
000000d0: 27ac 723f 3793 1cbf 78ad 5fbd b57d e43e
000000e0: c7fd dcbe 2489 02be a498 263e 0a21 d33e
000000f0: a8eb bcbe b746 babe 4bca a0be 5630 493d
00000100: fdc7 9e3e d897 16bf 8c2f 23be 937d aebe
00000110: 9c0a d1bf 1b81 473e 63a4 edbe 45f9 d13d
00000120: 724b 54bf 60a7 1c3e 0527 0fbb 9f9f b5be
00000130: 6edd 9abe 8aef fdbd b77b 4e3e ddf1 5b3e
00000140: 95cf 6d3f d286 de3e 9fc0 fb3e 652e 203e
00000150: d391 d03e 230c 7abf 66c2 f8be 717b 4fbf
00000160: 0353 91bf c8bf d13d e834 90bf 7311 4abf
00000170: 05c3 8abf 5ced c8bf 80ba 91bb 5c7c 29bf
00000180: 25e9 48bf 2f18 2bbf 89b7 81bf d37b 943d
00000190: 4e01 32be c9cc e0bc 09c5 b4be a433 bfbd
000001a0: d3ea 4bbe d334 46bf b8a2 87bf 7e9d a7bf
000001b0: acc1 b8bf baa5 763c 0d67 aabe 3fca 00be
000001c0: 199f 47bf 8ca8 cbbe 4492 87bd 8577 8bbf
000001d0: 5b01 84bf 8f8c 55bf c8bf abbf aca8 883e
000001e0: ebba 01bd 27ad e4bd 0c8f a43e bfb0 653e
000001f0: 528f 393e 370a 85bf 4724 13bf 04ca 9bbf
00000200: 9cd8 143e d2a6 cbbc eee2 a3be 7236 b4be
00000210: 9f07 273f 66b5 783e 264b 5fbe 062c 0abf
00000220: c11e debe 3e93 11bf 42e8 41bf a96a 063e
00000230: 4bca d7be 9cdb 78bf b177 8abf 3d1d 8cbf
00000240: 6107 593e b8fc 753f f9b4 933e 8b8e 883f
00000250: 5b19 ddbe cf30 673d

exp_avg f4 [30, 5]
0.0 0.0 0.0 0.00010390076 0.06386471 0.0 0.0 0.0
-6e-45 6e-45 6e-45 6e-45 1.9398989e-05 0.013390218 -0.013390218 0.0
0.0 0.0 2.276568e-28 0.071996585 0.0 0.0 0.0 2.2021459e-29
0.0069642984 6e-45 6e-45 2.6362832e-06 0.001823199 -0.13167657 6e-45 6e-45
6e-45 6e-45 -6e-45 0.0 0.0 0.0 9.573197e-05 0.057758756
0.00024898455 0.00024898455 0.00024898455 0.00029239242 -0.05863306 0.0 0.0 0.0
0.0 0.0 -0.00020206679 -0.00019053226 -0.0002050327 0.0023472558 -0.0023472558 0.0
0.0 0.0 0.00034638593 0.09978564 0.0 0.0 0.0 2.5668496e-05
0.01946728 0.00089417957 0.00089417957 0.00089417957 0.00037881342 -0.08506755 0.0009489386 0.00089523144
0.0009626937 -0.0030807166 0.0030807166 0.0 0.0 -6e-45 1.429548e-05 0.046751436
-0.00010630489 -0.000100265985 -0.00010786632 0.0012200731 0.07556406 0.00077906507 0.00077906507 0.00077906507
0.001868899 -0.16504502 0.0060626785 0.0060626785 0.0060626785 0.005522053 -0.005522053 0.0005851379
0.0005851379 0.0005851379 0.002098402 -0.18981852 0.0 0.0 0.0 0.0
0.0 0.004460703 0.004460703 0.004460703 0.007328311 -0.8217578 0.00097135134 0.0009163985
0.0009854159 -0.003154974 0.003154974 0.00037307732 0.00037307732 0.00037307732 0.0010841818 -0.1180544
0.0 0.0 0.0 -5.4754525e-29 -0.017316148 6.611919e-31 6e-45 1.5096745e-05
0.010442921 0.17890282 8.014318e-06 2.2640354e-05 4.2576035e-06 1.533292e-05 -1.533292e-05 0.0015448806
0.0015448806 0.0015448806 0.00066083984 -0.14774646 0.0006535942 0.0006535942 0.0006535942 0.0012087018
-0.096379265 -0.00022296644 -0.00021028898 -0.00022624436 0.0029345085 0.15774296
00000000: 0000 0000 0000 0000 0000 0000 4ce5 d938
00000010: 80cb 823d 0000 0000 0000 0000 0000 0000
00000020: 0400 0080 0400 0000 0400 0000 0400 0000
00000030: 03bb a237 a562 5b3c a562 5bbc 0000 0000
00000040: 0000 0000 0000 0000 6d4b 9011 f272 933d
00000050: 0000 0000 0000 0000 0000 0000 fa52 df0f
00000060: c534 e43b 0400 0000 0400 0000 00eb 3036
00000070: 68f8 ee3a 39d6 06be 0400 0000 0400 0000
00000080: 0400 0000 0400 0000 0400 0080 0000 0000
00000090: 0000 0000 0000 0000 b6c3 c838 7294 6c3d
000000a0: 248a 8239 248a 8239 248a 8239 3f4c 9939
000000b0: 3829 70bd 0000 0000 0000 0000 0000 0000
000000c0: 0000 0000 0000 0000 e4e1 53b9 9dc9 47b9
000000d0: 0cfe 56b9 6bd4 193b 6bd4 19bb 0000 0000
000000e0: 0000 0000 0000 0000 229b b539 6a5c cc3d
000000f0: 0000 0000 0000 0000 0000 0000 ad52 d737
00000100: d879 9f3c 6067 6a3a 6067 6a3a 6067 6a3a
00000110: 7a9b c639 e537 aebd 31c2 783a f7ad 6a3a
00000120: 485d 7c3a d9e5 49bb d9e5 493b 0000 0000
00000130: 0000 0000 0400 0080 9ed6 6f37 6f7e 3f3d
00000140: 01f0 deb8 e445 d2b8 4a36 e2b8 dcea 9f3a
00000150: 54c1 9a3d 2c3a 4c3a 2c3a 4c3a 2c3a 4c3a
00000160: d8f5 f43a 9001 29be 6fa9 c63b 6fa9 c63b
00000170: 6fa9 c63b 57f2 b43b 57f2 b4bb f163 193a
00000180: f163 193a f163 193a 5885 093b c95f 42be
00000190: 0000 0000 0000 0000 0000 0000 0000 0000
000001a0: 0000 0000 172b 923b 172b 923b 172b 923b
000001b0: 5422 f03b b85e 52bf 49a2 7e3a 763a 703a
000001c0: 1229 813a aec3 4ebb aec3 4e3b 9799 c339
000001d0: 9799 c339 9799 c339 1b1b 8e3a 81c6 f1bd
000001e0: 0000 0000 0000 0000 0000 0000 b8d1 8a90
000001f0: 98da 8dbc ad91 560d 0400 0000 0748 7d37
00000200: c918 2b3c 4d32 373e 3c75 0637 caeb bd37
00000210: 89dc 8e36 329f 8037 329f 80b7 977d ca3a
00000220: 977d ca3a 977d ca3a 363c 2d3a d94a 17be
00000230: f755 2b3a f755 2b3a f755 2b3a 4d6d 9e3a
00000240: 7e62 c5bd 19cc 69b9 0581 5cb9 023c 6db9
00000250: e250 403b 5f87 213e

exp_avg_sq f4 [30, 5]
0.0 0.0 0.0 6.0481416e-06 0.07198081 0.0 0.0 0.0
1.5657195e-10 1.5657195e-10 6.908186e-07 2.2374419e-10 1.0033374e-05 0.00085858395 0.40139166 0.0
0.0 0.0 0.0 0.08702978 0.0 0.0 0.0 0.0
0.0007055174 1.8213978e-08 2.4502786e-09 2.0204719e-07 2.3298708e-05 0.18932156 1.5344389e-11 1.5344389e-11
1.5344389e-11 1.3338863e-11 1.3338863e-11 0.0 0.0 0.0 3.8691637e-06 0.05336758
1.3182418e-07 1.313683e-07 1.4687453e-07 4.4214607e-06 0.05338567 0.0 0.0 0.0
0.0 0.0 5.028986e-06 5.0120493e-06 5.129613e-06 8.093259e-06 8.093259e-06 0.0
0.0 0.0 2.1643786e-05 0.18493234 0.0 0.0 0.0 2.7397405e-08
0.0035059864 1.6033149e-06 1.6024808e-06 1.6806983e-06 6.0711754e-06 0.06945116 0.00015120632 0.00015049725
0.00015536889 0.0004949593 0.1803097 0.0 0.0 6.7147614e-11 3.4644165e-07 0.03244053
2.4699561e-06 2.4417104e-06 2.5705301e-06 4.325e-06 0.09770068 9.543385e-07 9.543385e-07 9.543385e-07
3.466446e-05 0.31722495 4.397872e-05 4.397872e-05 4.4039767e-05 0.00059141556 0.09826055 1.6103922e-06
1.605485e-06 1.6138017e-06 4.366498e-05 0.39155135 0.0 0.0 0.0 0.0
0.0 3.898071e-05 3.8979433e-05 3.8984705e-05 0.00058828306 3.560175 0.00015882988 0.00015800657
0.00016321248 0.00048270644 0.00048270644 5.886149e-07 5.886149e-07 5.886149e-07 1.3258957e-05 0.18121159
0.0 0.0 0.0 0.0 0.017580615 5.226048e-07 3.4874923e-08 6.1074443e-06
0.0004682809 0.15673059 3.9057647e-07 3.6282518e-07 7.558878e-07 4.9302757e-06 4.9302757e-06 5.6612726e-06
5.6462727e-06 5.671096e-06 4.6288733e-05 0.3281382 4.001594e-07 3.9985397e-07 4.001594e-07 9.961558e-06
0.10925283 1.0190409e-05 1.0073299e-05 1.0637301e-05 1.4328891e-05 0.40393397
00000000: 0000 0000 0000 0000 0000 0000 24f1 ca36
00000010: ad6a 933d 0000 0000 0000 0000 0000 0000
00000020: 1627 2c2f 1627 2c2f b170 3935 6402 762f
00000030: 0355 2837 9812 613a 3583 cd3e 0000 0000
00000040: 0000 0000 0000 0000 0000 0000 ab3c b23d
00000050: 0000 0000 0000 0000 0000 0000 0000 0000
00000060: 79f2 383a f674 9c32 c261 2831 4ff2 5834
00000070: 9871 c337 83dd 413e 7ef8 862d 7ef8 862d
00000080: 7ef8 862d e6a8 6a2d e6a8 6a2d 0000 0000
00000090: 0000 0000 0000 0000 ddd3 8136 f797 5a3d
000000a0: 8e8b 0d34 3e0e 0d34 90b4 1d34 0f5c 9436
000000b0: efaa 5a3d 0000 0000 0000 0000 0000 0000
000000c0: 0000 0000 0000 0000 a9be a836 2d2d a836
000000d0: 0a1f ac36 48c8 0737 48c8 0737 0000 0000
000000e0: 0000 0000 0000 0000 ad8f b537 e75e 3d3e
000000f0: 0000 0000 0000 0000 0000 0000 8857 eb32
00000100: b1c4 653b 7b31 d735 d214 d735 5b94 e135
00000110: 00b7 cb36 693c 8e3d 238d 1e39 ccce 1d39
00000120: 85ea 2239 28c0 013a 1ba3 383e 0000 0000
00000130: 0000 0000 bfa8 932e 94fe b934 5ce0 043d
00000140: 86c1 2536 44dc 2336 5f81 2c36 781f 9136
00000150: 4b17 c83d d216 8035 d216 8035 d216 8035
00000160: ae64 1138 4f6b a23e cb75 3838 cb75 3838
00000170: 57b7 3838 3a09 1b3a d43c c93d a824 d835
00000180: 0b7c d735 ce99 d835 ea24 3738 6b79 c83e
00000190: 0000 0000 0000 0000 0000 0000 0000 0000
000001a0: 0000 0000 387f 2338 d97d 2338 8283 2338
000001b0: 0237 1a3a e8d9 6340 928b 2639 91ae 2539
000001c0: 0424 2b39 c313 fd39 c313 fd39 4f01 1e35
000001d0: 4f01 1e35 4f01 1e35 c972 5e37 888f 393e
000001e0: 0000 0000 0000 0000 0000 0000 0000 0000
000001f0: 3905 903c 2149 0c35 62c9 1533 8cee cc36
00000200: 9983 f539 fc7d 203e 6cb0 d134 50ca c234
00000210: 37e8 4a35 bf6e a536 bf6e a536 f6f5 bd36
00000220: 1d75 bd36 584a be36 2626 4238 bb01 a83e
00000230: 7dd5 d634 83ab d634 7dd5 d634 9120 2737
00000240: f3bf df3d 79f7 2a37 7d00 2937 dc76 3237
00000250: 1e66 7037 6fd0 ce3e

exp_avg_sq f4 [30]
-0.06002938 -0.15983768 1.5362377 -0.18628922 -0.41881418 1.1266377 -0.46697146 -0.07438753
1.0187719 -0.2079972 -0.17693546 -0.17416206 -0.17038907 1.8700527 1.5171319 -0.008408503
-0.08175062 1.1433215 1.5715705 1.1284449 -0.34104005 1.8113883 1.667102 1.4840931
-0.39995378 1.6619117 -0.46513706 0.9644461 1.2770482 -0.2531312
00000000: 5ee1 75bd 7dac 23be 70a3 c43f 9ac2 3ebe
00000010: d06e d6be aa35 903f e216 efbe 7d58 98bd
00000020: 1e67 823f 38fd 54be 922e 35be 8a57 32be
00000030: 797a 2ebe e35d ef3f 6131 c23f d1c3 09bc
00000040: de6c a7bd 5c58 923f 3929 c93f e270 903f
00000050: cd9c aebe 92db e73f 9963 d53f c3f6 bd3f
00000060: bec6 ccbe 86b9 d43f 7226 eebe f1e5 763f
00000070: 5176 a33f 6a9a 81be

exp_avg f4 [30]
2.8415267e-05 6e-45 -0.021426387 7.691743e-05 7.4402956e-06 -0.0030662813 6e-45 2.3174098e-05
-0.0015026571 0.0 0.0010042699 -0.00022663065 1.6799115e-05 -0.001118598 -0.01422962 0.00012040409
0.00057986815 -0.0028258737 -0.011630778 -0.0038453983 0.0 -0.01466956 -0.014562855 -0.0026831715
-1.849968e-05 -0.016503561 1.4626384e-05 -0.0019360888 -0.0011374782 0.0002894683
00000000: 525d ee37 0400 0000 6486 afbc bb4e a138
00000010: a7a7 f936 aaf3 48bb 0400 0000 ff65 c237
00000020: cef4 c4ba 0000 0000 b5a1 833a b4a3 6db9
00000030: d3eb 8c37 ec9d 92ba 5a23 69bc 7481 fc38
00000040: 4b02 183a 4b32 39bb 058f 3ebc 1403 7cbb
00000050: 0000 0000 9858 70bc 0a99 6ebc 26d8 2fbb
00000060: c32f 9bb7 7a32 87bc d763 7537 5cc4 fdba
00000070: 6f17 95ba c7c3 9739

exp_avg_sq f4 [30]
3.602587e-05 1.9246582e-10 0.003557446 9.9333015e-08 8.052545e-10 0.000103211125 1.5344389e-11 2.8370496e-05
8.256024e-05 0.0 3.8839087e-05 0.0001053975 4.2751093e-08 2.6336125e-05 0.0026096164 2.8967397e-05
7.180426e-05 0.0001973365 0.0034377752 0.00024645243 0.0 0.002846722 0.0023165874 0.00016859427
2.0065958e-08 0.0017926417 6.485577e-06 0.00023228631 9.403074e-05 1.3606855e-05
00000000: 7c1a 1738 509e 532f 0a24 693b e750 d533
00000010: bf58 5d30 0d73 d838 7ef8 862d 2dfd ed37
00000020: 3124 ad38 0000 0000 27e7 2238 da08 dd38
00000030: 539d 3733 66ec dc37 1906 2b3b 03ff f237
00000040: 9e95 9638 1dec 4e39 4c4c 613b 4936 8139
00000050: 0000 0000 1290 3a3b e3d1 173b aec8 3039
00000060: 825d ac32 13f7 ea3a af9e d936 e291 7339
00000070: 5e32 c538 ff48 6437

exp_avg_sq f4 [3, 30]
-0.110849656 -0.008444818 1.7367849 -0.1262725 -0.009641161 0.23851217 0.047675427 -0.1007012
0.1095259 -0.07782396 -0.26601616 -0.17728326 -0.03134287 0.15705416 1.2299855 -0.080488585
-0.13500534 0.29938594 1.4328555 0.3437244 0.17977229 1.479142 1.2590709 0.21577266
0.0348869 1.3545645 -0.33408955 0.27014756 0.17622972 -0.28605312 -0.124068424 0.02254482
-0.13850679 -0.15905671 0.082971424 0.07400363 0.011121287 0.12803088 0.038173825 0.040309362
0.088065006 0.16855197 0.1443987 -0.017444212 -0.092279926 0.045922894 0.16843261 0.12650314
0.072101675 0.17226462 -0.15590143 0.020602638 -0.08018792 -0.072020926 0.12235913 -0.12434986
-0.047020458 0.1604901 -0.13227372 -0.11996731 0.15725362 0.17717764 -0.0015847196 -0.1780999
-0.03955592 -0.14158486 0.12961625 0.03524704 -0.17819141 0.07039903 -0.0005327959 0.036321554
-0.109554306 0.14785208 -0.09586898 0.1424145 0.13594642 -0.07240035 0.014308617 -0.13251318
-0.13430424 0.06427789 -0.13234966 0.07429386 -0.051872537 0.17126383 -0.12067775 0.10317277
-0.1067553 -0.16351178
00000000: 2505 e3bd 225c 0abc f84e de3f 944d 01be
00000010: f6f5 1dbc 893c 743e 4f47 433d 6e3c cebd
00000020: 1d4f e03d 2b62 9fbd 4533 88be be89 35be
00000030: 6261 00bd ced2 203e 2a70 9d3f 33d7 a4bd
00000040: d73e 0abe 1d49 993e cf67 b73f a5fc af3e
00000050: 3a16 383e 8654 bd3f 3c29 a13f 82f3 5c3e
00000060: 91e5 0e3d 5f62 ad3f c90d abbe c850 8a3e
00000070: 9075 343e 8e75 92be 9617 febd eaaf b83c
00000080: b9d4 0dbe c3df 22be ecec a93d 378f 973d
00000090: 0f36 363c 871a 033e 285c 1c3d 6e1b 253d
000000a0: 6d5b b43d e398 2c3e 41dd 133e 2ae7 8ebc
000000b0: 42fd bcbd a519 3c3d 9979 2c3e 0a8a 013e
000000c0: 0baa 933d 2366 303e a0a4 1fbe ddc6 a83c
000000d0: 9039 a4bd b57f 93bd 6c97 fa3d 24ab febd
000000e0: 8698 40bd 8457 243e c372 07be 6cb1 f5bd
000000f0: 1807 213e 0e6e 353e 5eb6 cfba d25f 36be
00000100: 6305 22bd 9ffb 10be 1fba 043e 335f 103d
00000110: cf77 36be 5e2d 903d 54ab 0bba e9c5 143d
00000120: 025e e0bd 8966 173e f556 c4bd 1bd5 113e
00000130: 8a35 0b3e a246 94bd b16e 6a3c 89b1 07be
00000140: 0d87 09be 20a4 833d ab86 07be 6127 983d
00000150: 4c78 54bd c95f 2f3e e525 f7bd 3f4c d33d
00000160: 86a2 dabd a26f 27be

exp_avg f4 [3, 30]
-0.034362633 -6e-45 -0.021080403 -0.18476912 -0.01676603 -0.04791943 6e-45 -0.20307021
-0.2219823 0.0 0.00738875 -0.22980383 -0.17430745 -0.12849048 -0.018861428 -0.1212215
-0.22343697 -0.07809458 -0.031427413 -0.05988407 0.0 -0.038513288 -0.019396871 -0.17646793
-0.09850655 -0.01897352 1.9849851e-05 -0.08781824 -0.14064682 -0.026720583 0.0 0.0
0.0 0.0 0.0 0.0 0.0 0.0 0.0 0.0
0.0 0.0 0.0 0.0 0.0 0.0 0.0 0.0
0.0 0.0 0.0 0.0 0.0 0.0 0.0 0.0
0.0 0.0 0.0 0.0 0.0 0.0 0.0 0.0
0.0 0.0 0.0 0.0 0.0 0.0 0.0 0.0
0.0 0.0 0.0 0.0 0.0 0.0 0.0 0.0
0.0 0.0 0.0 0.0 0.0 0.0 0.0 0.0
0.0 0.0
00000000: d5bf 0cbd 0400 0080 cfb0 acbc 1e34 3dbe
00000010: ea58 89bc 2a47 44bd 0400 0000 a3f1 4fbe
00000020: 544f 63be 0000 0000 541d f23b b251 6bbe
00000030: a77d 32be 0293 03be 4883 9abc fa42 f8bd
00000040: a9cc 64be 0df0 9fbd 08ba 00bd 0049 75bd
00000050: 0000 0000 1cc0 1dbd 30e6 9ebc 02b4 34be
00000060: cdbd c9bd 5b6e 9bbc 3b83 a637 0dda b3bd
00000070: b805 10be 20e5 dabc 0000 0000 0000 0000
00000080: 0000 0000 0000 0000 0000 0000 0000 0000
00000090: 0000 0000 0000 0000 0000 0000 0000 0000
000000a0: 0000 0000 0000 0000 0000 0000 0000 0000
000000b0: 0000 0000 0000 0000 0000 0000 0000 0000
000000c0: 0000 0000 0000 0000 0000 0000 0000 0000
000000d0: 0000 0000 0000 0000 0000 0000 0000 0000
000000e0: 0000 0000 0000 0000 0000 0000 0000 0000
000000f0: 0000 0000 0000 0000 0000 0000 0000 0000
00000100: 0000 0000 0000 0000 0000 0000 0000 0000
00000110: 0000 0000 0000 0000 0000 0000 0000 0000
00000120: 0000 0000 0000 0000 0000 0000 0000 0000
00000130: 0000 0000 0000 0000 0000 0000 0000 0000
00000140: 0000 0000 0000 0000 0000 0000 0000 0000
00000150: 0000 0000 0000 0000 0000 0000 0000 0000
00000160: 0000 0000 0000 0000

exp_avg_sq f4 [3, 30]
0.015919466 5.1031284e-12 0.002530117 0.68078935 0.010596564 0.044509158 6.231277e-12 0.8379221
0.9944835 0.0 0.00073600473 1.0859789 0.65160674 0.33858016 0.0047623827 0.27988943
1.0449864 0.09609437 0.007565314 0.054647688 0.0 0.007739148 0.005195006 0.5533764
0.26161122 0.0029591098 4.6818845e-06 0.14473876 0.360008 0.01274423 0.0 0.0
0.0 0.0 0.0 0.0 0.0 0.0 0.0 0.0
0.0 0.0 0.0 0.0 0.0 0.0 0.0 0.0
0.0 0.0 0.0 0.0 0.0 0.0 0.0 0.0
0.0 0.0 0.0 0.0 0.0 0.0 0.0 0.0
0.0 0.0 0.0 0.0 0.0 0.0 0.0 0.0
0.0 0.0 0.0 0.0 0.0 0.0 0.0 0.0
0.0 0.0 0.0 0.0 0.0 0.0 0.0 0.0
0.0 0.0
00000000: 8a69 823c e58c b32c 52d0 253b 3648 2e3f
00000010: 369d 2d3c 3c4f 363d 5b3e db2c 1082 563f
00000020: 7896 7e3f 0000 0000 71f0 403a 5b01 8b3f
00000030: b3cf 263f 615a ad3e c30d 9c3b ab4d 8f3e
00000040: 1dc2 853f 20cd c43d 74e6 f73b 41d6 5f3d
00000050: 0000 0000 ae98 fd3b de3a aa3b 13aa 0d3f
00000060: e8f1 853e a0ed 413b 1519 9d36 6636 143e
00000070: f852 b83e 2dcd 503c 0000 0000 0000 0000
00000080: 0000 0000 0000 0000 0000 0000 0000 0000
00000090: 0000 0000 0000 0000 0000 0000 0000 0000
000000a0: 0000 0000 0000 0000 0000 0000 0000 0000
000000b0: 0000 0000 0000 0000 0000 0000 0000 0000
000000c0: 0000 0000 0000 0000 0000 0000 0000 0000
000000d0: 0000 0000 0000 0000 0000 0000 0000 0000
000000e0: 0000 0000 0000 0000 0000 0000 0000 0000
000000f0: 0000 0000 0000 0000 0000 0000 0000 0000
00000100: 0000 0000 0000 0000 0000 0000 0000 0000
00000110: 0000 0000 0000 0000 0000 0000 0000 0000
00000120: 0000 0000 0000 0000 0000 0000 0000 0000
00000130: 0000 0000 0000 0000 0000 0000 0000 0000
00000140: 0000 0000 0000 0000 0000 0000 0000 0000
00000150: 0000 0000 0000 0000 0000 0000 0000 0000
00000160: 0000 0000 0000 0000

exp_avg_sq f4 [3]
0.5281979 -0.10883312 0.101025134
00000000: fa37 073f e6e3 debd 44e6 ce3d

exp_avg f4 [3]
-0.012194815 0.0 0.0
00000000: c3cc 47bc 0000 0000 0000 0000

exp_avg_sq f4 [3]
0.017307628 0.0 0.0
00000000: bac8 8d3c 0000 0000 0000 0000
